sampling-based/exp/lidar3d/a6_arxiv/W1.npy (npy, 532608 bytes, 1 tensors)

array f4 [64, 32, 1, 65]
0	0xbd6c7598	-0.057729334
1	0xbdb47335	-0.088110365
2	0xbd58a240	-0.05288911
3	0xbdd5b155	-0.10434214
4	0xbda3bcfc	-0.0799503
5	0xbd6a16bf	-0.0571506
6	0xbd2653a3	-0.040607106
7	0xbd451937	-0.04811975
8	0xbcf217c0	-0.02955234
9	0xbc65427e	-0.013992904
10	0xbcafced1	-0.021460922
11	0xbc01f481	-0.007931829
12	0xbc55abfe	-0.013041494
13	0xbbc2d5a9	-0.0059458804
14	0xbb228f4e	-0.0024804655
15	0xbbb0918c	-0.0053884443
16	0xbba47e58	-0.005019944
17	0xbb522995	-0.0032068242
18	0xbb67a150	-0.0035343952
19	0xbbaea200	-0.0053293705
20	0xb94acd77	-0.00019340763
21	0x3b40645c	0.0029356694
22	0x3b4e92e6	0.0031520664
23	0x3a3c0724	0.0007172695
24	0xb94d5e51	-0.00019585459
25	0x3a6d98aa	0.0009063581
26	0x38f0a394	0.000114745606
27	0xbc06b57f	-0.008221983
28	0xbcae9e11	-0.021315606
29	0xbbe54c41	-0.0069976156
30	0xbb93d7ec	-0.004511824
31	0xbb1bba7e	-0.002376228
32	0xbbb8003a	-0.0056152614
33	0xbc3ca7e7	-0.01151464
34	0xbc0e22fd	-0.008675334
35	0xbbff31bc	-0.007787911
36	0xbc309876	-0.010778537
37	0xbce445e5	-0.02786536
38	0xbbbd1106	-0.0057698516
39	0xbc68f88a	-0.014219413
40	0xbbafb75d	-0.005362435
41	0xbab9dad9	-0.0014179602
42	0xbbc1955a	-0.0059076967
43	0xb959e00b	-0.00020778195
44	0x3a0d0166	0.00053789315
45	0x36b14b96	5.2838104e-06
46	0x3c0a00e8	0.008423068
47	0xbb31f356	-0.0027153096
48	0x3ae24a0d	0.00172645
49	0x3a009e5e	0.0004906411
50	0xbb17b6a8	-0.0023149643
51	0x39a7b6f3	0.0003198903
52	0xb82685b3	-3.9702e-05
53	0xba61ae02	-0.0008608998
54	0x3634797d	2.6892806e-06
55	0x3c40c16a	0.0117648635
56	0xbadd7359	-0.0016895338
57	0x3a462d29	0.000755983
58	0x3c29bb8c	0.010359656
59	0x391f5b69	0.00015197475
60	0x3b8d503a	0.0043125423
61	0xb97c19b2	-0.00024042165
62	0xb90de340	-0.00013531465
63	0x3a0f2698	0.0005460768
64	0x384f4eef	4.942616e-05
65	0xbe14ac23	-0.1451879
66	0xbdd93473	-0.10605707
67	0xbd51d72b	-0.05123059
68	0xbde86cca	-0.11348875
69	0xbda19ff5	-0.078918375
70	0xbd720a99	-0.059092138
71	0xbd2cfe69	-0.042234812
72	0xbd444439	-0.047916625
73	0xbcf27caa	-0.02960046
74	0xbcaaa4c3	-0.020830518
75	0xbcb0c3c1	-0.021577718
76	0xbc247ac8	-0.010039039
77	0xbc50909f	-0.012729793
78	0xbb050908	-0.0020299572
79	0xbb1f8888	-0.0024342854
80	0xbbb07a33	-0.005385661
81	0xbb880796	-0.004151295
82	0xbbc2b389	-0.0059418124
83	0xbb959de3	-0.0045659407
84	0xbad9aaed	-0.0016606726
85	0xba0adae7	-0.0005296901
86	0x3b7741e4	0.0037728483
87	0x3be924fc	0.0071150046
88	0x3aaf1556	0.0013357799
89	0xb877987a	-5.9031394e-05
90	0xb9afdfa1	-0.00033545218
91	0x38978d60	7.226574e-05
92	0xbc7bcc4c	-0.015368532
93	0xbc8f9ea8	-0.017531708
94	0xbc0ca588	-0.008584388
95	0xbc27dc22	-0.010245355
96	0xba888d5e	-0.0010418107
97	0xbbf91374	-0.007601196
98	0xbc5071b2	-0.01272242
99	0xbc1766bf	-0.009240805
100	0xbc1a71bf	-0.009426533
101	0xbc552426	-0.013009107
102	0xbcc2e943	-0.023792868
103	0xbbaa0e9c	-0.00518973
104	0xbca026aa	-0.019549686
105	0xbc05acab	-0.008158843
106	0xbb2d30ff	-0.002642691
107	0xbb7b61c7	-0.003835784
108	0xb7c4994a	-2.3436402e-05
109	0x39739c1c	0.00023232441
110	0xb9361477	-0.00017364496
111	0x3c2ba591	0.010476486
112	0xb9b045ef	-0.0003362144
113	0x3a43c26f	0.00074676325
114	0x3b231a47	0.0024887489
115	0xb738f8c7	-1.1025178e-05
116	0x3aa0b4ec	0.001226095
117	0x39fb0684	0.00047879305
118	0x399c2b41	0.00029786865
119	0xb8b2a0f7	-8.5176835e-05
120	0x3c7b2076	0.0153275635
121	0x39b498d2	0.00034446135
122	0x38e59306	0.00010946956
123	0x3c428c3f	0.011874258
124	0x39fa9f0d	0.00047802218
125	0x3b88b7b6	0.0041722907
126	0x3ab41e79	0.0013741992
127	0x38205394	3.822481e-05
128	0xba6fc691	-0.0009146715
129	0xb918c776	-0.00014570155
130	0xbd007196	-0.031358324
131	0xbce6d642	-0.028178338
132	0xbc560f87	-0.013065225
133	0xbd1fac9f	-0.038982984
134	0xbd18fb3f	-0.037348982
135	0xbcad5139	-0.021156894
136	0xbbf03941	-0.007331044
137	0xbc1ac028	-0.009445228
138	0xbbdb9084	-0.006700577
139	0xbb322bdf	-0.0027186794
140	0xbc385f00	-0.0112531185
141	0x391de968	0.00015059637
142	0xbb80302e	-0.0039119935
143	0xbbea4ad9	-0.007150036
144	0xb92fb7a2	-0.00016757709
145	0xbb55c393	-0.0032617792
146	0xb9f5f15d	-0.0004690987
147	0xb9620df1	-0.00021558233
148	0x3bbc0e75	0.005739028
149	0xbb029c13	-0.0019929453
150	0x3a4c3af7	0.0007790769
151	0x3c07560e	0.008260263
152	0x3c53fae8	0.012938239
153	0x3b92c77e	0.0044793477
154	0xb8867bba	-6.412664e-05
155	0xb7bdb810	-2.2616267e-05
156	0x3740bbc9	1.1487814e-05
157	0xbbc5d484	-0.0060372967
158	0xbc06067e	-0.008180259
159	0x3b4fa6e4	0.0031685168
160	0xbaa3b2b0	-0.0012489166
161	0xbc0edf4e	-0.008720232
162	0xba4fa15e	-0.0007920469
163	0xbb8cf04c	-0.0043011066
164	0xbb5316b0	-0.0032209568
165	0xba121b55	-0.0005573531
166	0x3c29e2d4	0.010369021
167	0xbb6b4a80	-0.003590256
168	0xb90be91e	-0.00013342916
169	0xbb5f9ee9	-0.0034121817
170	0xba379676	-0.00070033164
171	0x3c76d430	0.015065238
172	0xba8f5dbc	-0.0010937969
173	0xb962f128	-0.00021642877
174	0x394d124d	0.00019557141
175	0xb8801e3a	-6.109146e-05
176	0xba9710e7	-0.0011525423
177	0xbac76a79	-0.0015214226
178	0x3a2801f0	0.000640898
179	0x3bbac2bb	0.005699483
180	0xbabed459	-0.0014559134
181	0xba0f8b86	-0.00054758077
182	0xbab60e11	-0.001388969
183	0xba3003c9	-0.0006714431
184	0xb8aef2fa	-8.3422245e-05
185	0xbbff60ed	-0.007793537
186	0xba766e16	-0.00094005594
187	0x3a00f8e7	0.0004919902
188	0x3bd7aece	0.0065821176
189	0x38c10b2e	9.2050395e-05
190	0x3ad4c73e	0.0016233695
191	0x3a84f3b7	0.0010143433
192	0xb5de9e75	-1.6586406e-06
193	0x388f98c8	6.847229e-05
194	0xb7f9c65e	-2.9775485e-05
195	0xbd9c1ba7	-0.07622462
196	0xbcd45869	-0.025921063
197	0xbb45a50b	-0.0030158188
198	0xbd7e1b80	-0.062037945
199	0xbd15d00a	-0.036575355
200	0xbc0217bf	-0.007940232
201	0xbc707e3f	-0.014678537
202	0xbc160f79	-0.009158962
203	0xbb1775a5	-0.0023110893
204	0xbc8ba6a4	-0.017047234
205	0xbc9aa1ff	-0.018876074
206	0x3b403998	0.0029331204
207	0xbbe4a520	-0.0069776922
208	0xbc87b8cc	-0.01656761
209	0x3ad9733a	0.0016590126
210	0xbb3d1fb5	-0.002885801
211	0xbb83b75f	-0.0040196623
212	0xb9173333	-0.00014419555
213	0x3b2c2fd1	0.0026273618
214	0xbb398ca4	-0.0028312588
215	0x3b1fdcd7	0.0024393105
216	0x3c134c6e	0.00899039
217	0x3c456cf0	0.0120498985
218	0x3bb008b2	0.0053721303
219	0x39eb04da	0.00044826308
220	0xb99f981b	-0.0003044017
221	0xb88e09d0	-6.7729154e-05
222	0xbca1f134	-0.019768335
223	0xbbffc718	-0.0078057162
224	0xbae45b28	-0.0017422186
225	0xbc47b099	-0.0121881
226	0xbc8c6839	-0.017139541
227	0xba8c4961	-0.0010703021
228	0xbbf0b989	-0.0073463363
229	0xbbc20fa6	-0.0059222756
230	0xba2bb307	-0.00065498095
231	0xbc47638a	-0.012169728
232	0xbbd5f11d	-0.006528987
233	0xbac9e54c	-0.0015403419
234	0xbbe341e3	-0.0069353445
235	0xba2d9cee	-0.00066228106
236	0x3c2fa6c4	0.010720912
237	0x3ac93c75	0.0015353101
238	0xb9e8e4b4	-0.00044420885
239	0xbadad228	-0.0016694712
240	0x372a15c0	1.0137854e-05
241	0xbbc2c437	-0.005943801
242	0xbb733160	-0.0037108287
243	0x3a3c1955	0.00071754056
244	0x3a951152	0.001137296
245	0xbb54a016	-0.0032444051
246	0xba5012ab	-0.0007937352
247	0xbafdc7d9	-0.0019361927
248	0xba071645	-0.000515316
249	0xb904507e	-0.00012618487
250	0xbc3060d3	-0.010765272
251	0xbb41ad02	-0.0029552584
252	0xb94dd305	-0.00019628934
253	0x3b503749	0.0031771234
254	0xb832cffc	-4.2632208e-05
255	0xbb0ce2be	-0.0021497454
