sampling-based/exp/lidar3d/a6_arxiv/W2.npy (npy, 532608 bytes, 1 tensors)

array f4 [64, 32, 1, 65]
00000000: 14e7 163b 6327 41ba 159b 3cba 39dd d23a
00000010: fa18 8738 b3cf f7b9 d052 99b8 9e00 06b9
00000020: 2500 1739 581d 9739 c8f4 a5b9 db2b edb9
00000030: f69a c839 d2e4 33b9 fdf7 7cb9 4804 4037
00000040: 46d3 7bb8 d3ef 8eb9 17b5 8a38 2056 d1b9
00000050: 54f6 7237 ac75 1939 02ce 7d38 c16f 5db8
00000060: 1860 b137 8cd8 71b9 d063 d2b8 4e5e 2a3a
00000070: d008 9239 7e44 42b9 23eb 07b9 8147 87b9
00000080: 306d b7b9 4b97 afb9 b675 78b9 54a1 45b9
00000090: 82dd 6e39 4bc4 3538 e8ed dcb9 5e09 7db8
000000a0: 5b16 7f38 0c07 2bb9 4e02 efb9 7f2f 97b8
000000b0: 3a9a 5a37 142e 08b9 32f3 b739 0e9c ea38
000000c0: 4a40 b438 032b 50b9 3a27 d9b8 1c0e 09b8
000000d0: 3826 e5b8 36dd c5b7 b071 4336 54e8 db39
000000e0: 80b2 dcb5 8e40 50b9 8d27 1839 9352 9fb8
000000f0: 8802 0638 c79c 72b8 74a3 55b7 0d4f 4839
00000100: 1d73 80b9 4efb bb3d 04e8 8d3c 22f9 0c3c
00000110: 67d4 1e3b 05f8 e739 e298 d238 0295 6939
00000120: 034f 8fb8 5401 82b7 114b 163c a31b 9f39
00000130: 90f2 f435 abdc 643a 0c65 2439 71ca 97b5
00000140: 06ab fc38 8231 87b8 a009 86b7 0f50 d739
00000150: c941 4eb9 b23b e7b7 9ab7 2239 7f25 0338
00000160: c8a3 8e37 620e 4538 801c 5cb9 da62 8638
00000170: 9447 f73a 147b 3c3a 63cd bc38 76dc ad39
00000180: 9b19 6c38 bd69 8937 657d 0638 a526 0bb8
00000190: fd26 3c38 b209 de39 86be 3c39 591d 55b8
000001a0: fd10 7138 5940 8338 0b79 58b7 b2af 52b9
000001b0: 1cfd 38b9 67b5 bf38 bccf e4b5 c682 9439
000001c0: caf9 cd39 d780 b8b7 2656 2fb9 2659 70b8
000001d0: 0c00 f336 9dcd 0db9 2273 50b8 b498 b537
000001e0: b46b 0038 c02d 5ab4 cbac 66b9 29e4 5cb9
000001f0: 4e92 b037 07cf da38 469d be37 64a3 abb8
00000200: 4e56 9839 ce75 6037 7ed7 3fbd 0d6c 52ba
00000210: 2370 8138 f261 68bb 9203 b437 610f d438
00000220: 98b8 0339 b627 c837 0e33 ae36 9c2d 75bb
00000230: f27a 8338 f6e1 1c38 0e37 8f39 8edf d738
00000240: 7a85 3c37 28c3 8138 e289 6938 3212 51b9
00000250: 89b3 0839 f1bb 1739 dd82 b638 1b5c d838
00000260: 9464 4638 9636 10b8 ee2f 9c37 6723 8ab9
00000270: b21b 1db7 4ad6 e2b9 9cd8 8c38 b4ab b937
00000280: 16cf fe38 0d2e 4738 9773 beb6 459b 3f39
00000290: badd 9d38 f438 3cb9 6f20 7d38 c640 9d38
000002a0: 4a60 2738 a539 b838 da01 3eb8 2027 4338
000002b0: bcaa 9038 5ee8 e6b7 bc65 4fb9 df11 a7b5
000002c0: 47b7 e838 72be 0439 13b8 8438 90e1 0f39
000002d0: 7435 b538 9eb5 9db8 b86f c7b7 1461 1eb9
000002e0: 8851 dc37 0c7b 3738 446c c038 8021 9b37
000002f0: f4f8 2f37 30aa 58b9 da1b 65b8 0ced abb7
00000300: ce7f 0db8 8798 91b7 cf07 2bb8 fed8 58bd
00000310: 84ba fb39 fd9a 7239 bad7 00bd 45c6 0939
00000320: 341b 5139 2049 a5b9 6488 7fb7 dc8e 05b7
00000330: 98c2 ccbc bf9a 5a39 7843 b838 4ff9 34ba
00000340: 5025 4438 ebe6 b5b7 f36a 6e38 8668 a037
00000350: f691 61b8 fa4b 06bb 4c03 a9b6 12c0 7db7
00000360: 3b2f 1b39 7de4 c736 7570 83b8 c690 01b9
00000370: 3078 7e36 ca36 0d35 dfca 97b9 956f 9339
00000380: 6fa8 dc38 60a2 3b39 6a24 8138 9531 4fb8
00000390: 61c6 6839 3b2c 5b38 ed6b 8bb8 d98d cb38
000003a0: db14 c338 9235 ab38 08c7 9939 63fb f2b7
000003b0: 8009 b037 e559 88b7 cf4f 0c38 d515 67b9
000003c0: 0cf3 f038 fdfa 1039 dfa1 cd38 4222 5638
000003d0: de4f e738 78ab 8338 ab68 ddb8 cc61 f537
000003e0: 1dbf 07b9 d168 95b5 d0f5 41b7 b00e b937
000003f0: afb0 6ab8 d021 9ab6 1062 f1b8 e00e bbb5
0.0023025917 -0.0007368235 -0.000719474 0.0016087658 6.441954e-05 -0.0004726626 -7.3110336e-05 -0.00012779466
0.00014400536 0.00028822827 -0.0003165363 -0.00045236837 0.00038262428 -0.00017156012 -0.00024124976 1.1445089e-05
-6.0039827e-05 -0.00027263034 6.6140834e-05 -0.00039927755 1.4481677e-05 0.00014635053 6.051176e-05 -5.2794585e-05
2.1144791e-05 -0.00023064221 -0.00010032172 0.0006499038 0.00027853856 -0.00018526797 -0.00012962199 -0.0002580248
-0.0003498583 -0.00033491323 -0.00023694974 -0.00018847483 0.00022779967 4.3336575e-05 -0.00042138924 -6.0328624e-05
6.0817558e-05 -0.00016310456 -0.0004558735 -7.209088e-05 1.3029721e-05 -0.00012987136 0.00035085675 0.00011187057
8.5950436e-05 -0.00019852449 -0.00010354673 -3.2676486e-05 -0.0001092669 -2.358724e-05 2.912344e-06 0.00041944033
-1.6443228e-06 -0.00019860474 0.00014510583 -7.5970915e-05 3.1950447e-05 -5.7843306e-05 -1.2733846e-05 0.00019102935
-0.0002449983 0.09178792 0.017322548 0.00860432 0.0024235488 0.00044244542 0.00010042057 0.00022276121
-6.8334884e-05 -1.5497826e-05 0.009173171 0.00030347434 1.8250012e-06 0.0008730392 0.00015677902 -1.1309295e-06
0.00012048152 -6.446523e-05 -1.5978527e-05 0.00041067644 -0.00019670198 -2.7565144e-05 0.00015517921 3.1267755e-05
1.7003986e-05 4.6981855e-05 -0.00020991452 6.4080305e-05 0.0018865936 0.0007189971 9.002795e-05 0.00033161388
5.629063e-05 1.638091e-05 3.2064872e-05 -3.3176173e-05 4.4859004e-05 0.00042350363 0.00018000053 -5.081049e-05
5.74747e-05 6.2585525e-05 -1.2902786e-05 -0.00020092612 -0.00017641898 9.1413785e-05 -1.7047782e-06 0.00028326194
0.00039286754 -2.1994505e-05 -0.00016721393 -5.7303485e-05 7.24197e-06 -0.00013523405 -4.969829e-05 2.164799e-05
3.0617884e-05 -2.0319476e-07 -0.0002199888 -0.00021065831 2.1048963e-05 0.00010433612 2.2723001e-05 -8.184349e-05
0.00029056 1.3378869e-05 -0.04683637 -0.0008026965 6.1720864e-05 -0.003545877 2.1459335e-05 0.00010111812
0.000125619 2.386035e-05 5.1915476e-06 -0.0037411219 6.269467e-05 3.740374e-05 0.00027316104 0.00010293639
1.1236751e-05 6.18755e-05 5.5679942e-05 -0.00019938571 0.00013036853 0.00014470496 8.7028115e-05 0.000103168386
4.730055e-05 -3.4383113e-05 1.8618968e-05 -0.00026347788 -9.364378e-06 -0.00043265737 6.716067e-05 2.2133674e-05
0.000121502366 4.7488185e-05 -5.6758977e-06 0.00018273022 7.527643e-05 -0.00017950294 6.0350107e-05 7.4984084e-05
3.990558e-05 8.784541e-05 -4.5301254e-05 4.652806e-05 6.898257e-05 -2.7526341e-05 -0.00019778957 -1.2447671e-06
0.0001109676 0.00012659447 6.328537e-05 0.00013721571 8.640709e-05 -7.520172e-05 -2.3774672e-05 -0.00015104219
2.626401e-05 4.3745196e-05 9.1754395e-05 1.849304e-05 1.0488777e-05 -0.00020662765 -5.4623793e-05 -2.0495172e-05
-3.3736047e-05 -1.7356373e-05 -4.077685e-05 -0.052941315 0.00048013416 0.00023136656 -0.031455733 0.000131392
0.00019941927 -0.00031525735 -1.523094e-05 -7.96068e-06 -0.024995133 0.00020847748 8.786371e-05 -0.0006903605
4.676479e-05 -2.1684411e-05 5.6843226e-05 1.9122159e-05 -5.3780117e-05 -0.0020492063 -5.0369763e-06 -1.5124695e-05
0.00014799547 5.9572617e-06 -6.2675135e-05 -0.00012356331 3.7918908e-06 5.260632e-07 -0.00028952115 0.0002812116
0.00010521791 0.00017894199 6.157982e-05 -4.9398823e-05 0.00022199146 5.225486e-05 -6.648139e-05 9.7062155e-05
9.302209e-05 8.163894e-05 0.00029330724 -2.896571e-05 2.0985259e-05 -1.6254324e-05 3.345293e-05 -0.0002203801
0.00011489363 0.0001382641 9.8053126e-05 5.105348e-05 0.00011029815 6.278505e-05 -0.00010557597 2.9251816e-05
-0.00012945799 -1.1131871e-06 -1.1560929e-05 2.2060558e-05 -5.5954497e-05 -4.593494e-06 -0.00011510041 -1.3936915e-06
